2020-09-23 14:54:58,124 - train - INFO - Conv1dSpecVAE(
  (encoder): Sequential(
    (0): Conv1d(64, 32, kernel_size=(1,), stride=(1,))
    (1): BatchNorm1d(32, eps=1e-05, momentum=0.1, affine=True, track_running_stats=True)
    (2): Tanh()
    (3): Conv1d(32, 16, kernel_size=(3,), stride=(1,))
    (4): BatchNorm1d(16, eps=1e-05, momentum=0.1, affine=True, track_running_stats=True)
    (5): Tanh()
  )
  (encoder_fc): Sequential(
    (0): Linear(in_features=128, out_features=256, bias=True)
    (1): BatchNorm1d(256, eps=1e-05, momentum=0.1, affine=True, track_running_stats=True)
    (2): Tanh()
  )
  (mu_fc): Sequential(
    (0): Linear(in_features=256, out_features=32, bias=True)
  )
  (logvar_fc): Sequential(
    (0): Linear(in_features=256, out_features=32, bias=True)
  )
  (decoder_fc): Sequential(
    (0): Linear(in_features=32, out_features=256, bias=True)
    (1): BatchNorm1d(256, eps=1e-05, momentum=0.1, affine=True, track_running_stats=True)
    (2): Tanh()
    (3): Linear(in_features=256, out_features=128, bias=True)
    (4): BatchNorm1d(128, eps=1e-05, momentum=0.1, affine=True, track_running_stats=True)
    (5): Tanh()
  )
  (decoder): Sequential(
    (0): ConvTranspose1d(16, 32, kernel_size=(3,), stride=(1,))
    (1): BatchNorm1d(32, eps=1e-05, momentum=0.1, affine=True, track_running_stats=True)
    (2): Tanh()
    (3): ConvTranspose1d(32, 64, kernel_size=(1,), stride=(1,))
    (4): Tanh()
  )
)
Trainable parameters: 99568
2020-09-23 14:54:58,134 - trainer - WARNING - Warning: There's no GPU available on this machine,training will be performed on CPU.
2020-09-23 14:54:59,942 - trainer - INFO -     epoch          : 1
2020-09-23 14:54:59,943 - trainer - INFO -     loss           : 93559937.19148937
2020-09-23 14:54:59,943 - trainer - INFO -     loss_recon     : 93559876.25531915
…
