2020-09-23 15:38:45,584 - train - INFO - Conv1dSpecVAE(
  (encoder): Sequential(
    (0): Conv1d(1025, 128, kernel_size=(1,), stride=(1,))
    (1): BatchNorm1d(128, eps=1e-05, momentum=0.1, affine=True, track_running_stats=True)
    (2): Tanh()
    (3): Conv1d(128, 64, kernel_size=(2,), stride=(1,))
    (4): BatchNorm1d(64, eps=1e-05, momentum=0.1, affine=True, track_running_stats=True)
    (5): Tanh()
    (6): Conv1d(64, 32, kernel_size=(2,), stride=(1,))
    (7): BatchNorm1d(32, eps=1e-05, momentum=0.1, affine=True, track_running_stats=True)
    (8): Tanh()
  )
  (encoder_fc): Sequential(
    (0): Linear(in_features=608, out_features=256, bias=True)
    (1): BatchNorm1d(256, eps=1e-05, momentum=0.1, affine=True, track_running_stats=True)
    (2): Tanh()
    (3): Linear(in_features=256, out_features=128, bias=True)
    (4): BatchNorm1d(128, eps=1e-05, momentum=0.1, affine=True, track_running_stats=True)
    (5): Tanh()
  )
  (mu_fc): Sequential(
    (0): Linear(in_features=128, out_features=32, bias=True)
  )
  (logvar_fc): Sequential(
    (0): Linear(in_features=128, out_features=32, bias=True)
  )
  (decoder_fc): Sequential(
    (0): Linear(in_features=32, out_features=128, bias=True)
    (1): BatchNorm1d(128, eps=1e-05, momentum=0.1, affine=True, track_running_stats=True)
    (2): Tanh()
    (3): Linear(in_features=128, out_features=256, bias=True)
    (4): BatchNorm1d(256, eps=1e-05, momentum=0.1, affine=True, track_running_stats=True)
    (5): Tanh()
    (6): Linear(in_features=256, out_features=608, bias=True)
    (7): BatchNorm1d(608, eps=1e-05, momentum=0.1, affine=True, track_running_stats=True)
    (8): Tanh()
  )
  (decoder): Sequential(
    (0): ConvTranspose1d(32, 64, kernel_size=(2,), stride=(1,))
    (1): BatchNorm1d(64, eps=1e-05, momentum=0.1, affine=True, track_running_stats=True)
    (2): Tanh()
    (3): ConvTranspose1d(64, 128, kernel_size=(2,), stride=(1,))
    (4): BatchNorm1d(128, eps=1e-05, momentum=0.1, affine=True, track_running_stats=True)
    (5): Tanh()
    (6): ConvTranspose1d(128, 1025, kernel_size=(1,), stride=(1,))
    (7): Tanh()
  )
)
Trainable parameters: 698945
2020-09-23 15:38:45,594 - trainer - WARNING - Warning: There's no GPU available on this machine,training will be performed on CPU.
2020-09-23 15:38:48,008 - trainer - INFO -     epoch          : 1
2020-09-23 15:38:48,009 - trainer - INFO -     loss           : 212090.50404575892
2020-09-23 15:38:48,009 - trainer - INFO -     loss_recon     : 212079.94126674108
…
